Main Code Analysis/TensorFlow/ESP32_TF/anomaly_detection_model.tflite (tflite, 15288 bytes, 6 tensors)

tfl.pseudo_qconst1 i1 [3, 64]
0	0xeb	-21
1	0x3e	62
2	0x7f	127
3	0xf5	-11
4	0xa2	-94
5	0x01	1
6	0xd2	-46
7	0x19	25
8	0xe0	-32
9	0xb9	-71
10	0x70	112
11	0x15	21
12	0x9e	-98
13	0x38	56
14	0xf4	-12
15	0xf9	-7
16	0x4a	74
17	0x60	96
18	0x03	3
19	0x2d	45
20	0xc6	-58
21	0x57	87
22	0x00	0
23	0x0d	13
24	0xcf	-49
25	0xba	-70
26	0x02	2
27	0xa8	-88
28	0xb7	-73
29	0x2c	44
30	0x98	-104
31	0xdb	-37
32	0x32	50
33	0x44	68
34	0xa5	-91
35	0xa5	-91
36	0xaa	-86
37	0x23	35
38	0x58	88
39	0xa4	-92
40	0xd4	-44
41	0xa4	-92
42	0xab	-85
43	0x27	39
44	0x59	89
45	0xe0	-32
46	0xf8	-8
47	0xde	-34
48	0x96	-106
49	0xa1	-95
50	0x5e	94
51	0x98	-104
52	0x01	1
53	0x04	4
54	0x9e	-98
55	0xfc	-4
56	0x07	7
57	0x52	82
58	0x59	89
59	0xf6	-10
60	0x22	34
61	0x52	82
62	0xea	-22
63	0x07	7
64	0xb0	-80
65	0x9f	-97
66	0x54	84
67	0x30	48
68	0x4c	76
69	0x77	119
70	0x04	4
71	0xb1	-79
72	0x76	118
73	0xd8	-40
74	0x40	64
75	0xe4	-28
76	0x05	5
77	0x00	0
78	0x12	18
79	0x01	1
80	0x0b	11
81	0x55	85
82	0x64	100
83	0xde	-34
84	0x52	82
85	0x32	50
86	0x47	71
87	0x5b	91
88	0x93	-109
89	0xa4	-92
90	0xb3	-77
91	0xa3	-93
92	0xe8	-24
93	0x4f	79
94	0x0b	11
95	0xbe	-66
96	0xf5	-11
97	0xac	-84
98	0x19	25
99	0x7f	127
100	0x00	0
101	0xb5	-75
102	0x89	-119
103	0xa0	-96
104	0x2e	46
105	0x65	101
106	0x22	34
107	0x31	49
108	0xac	-84
109	0x52	82
110	0x76	118
111	0x2f	47
112	0x24	36
113	0xb9	-71
114	0x28	40
115	0x0b	11
116	0xb1	-79
117	0xda	-38
118	0x67	103
119	0x75	117
120	0xd0	-48
121	0x3c	60
122	0xaf	-81
123	0x4f	79
124	0x59	89
125	0x88	-120
126	0x86	-122
127	0x22	34
128	0xa7	-89
129	0xe9	-23
130	0x52	82
131	0x7f	127
132	0x5d	93
133	0xc3	-61
134	0x29	41
135	0x70	112
136	0x13	19
137	0x9d	-99
138	0x18	24
139	0x29	41
140	0x23	35
141	0x73	115
142	0x4c	76
143	0x49	73
144	0x74	116
145	0xa5	-91
146	0x7e	126
147	0x5e	94
148	0xdd	-35
149	0xae	-82
150	0xc6	-58
151	0x05	5
152	0x98	-104
153	0x3b	59
154	0x26	38
155	0x2f	47
156	0x84	-124
157	0xe5	-27
158	0x02	2
159	0x60	96
160	0x46	70
161	0x87	-121
162	0xca	-54
163	0x95	-107
164	0xe0	-32
165	0x4f	79
166	0xba	-70
167	0x26	38
168	0x40	64
169	0x61	97
170	0x40	64
171	0xac	-84
172	0xd3	-45
173	0x6f	111
174	0x36	54
175	0x3f	63
176	0xf1	-15
177	0x70	112
178	0xe2	-30
179	0xd1	-47
180	0x22	34
181	0x46	70
182	0x7f	127
183	0x8d	-115
184	0x39	57
185	0xc0	-64
186	0xb4	-76
187	0x76	118
188	0xe7	-25
189	0x58	88
190	0x66	102
191	0x7b	123

tfl.pseudo_qconst3 i1 [64, 32]
0	0x7f	127
1	0xb8	-72
2	0x0f	15
3	0xef	-17
4	0x23	35
5	0x48	72
6	0x79	121
7	0x14	20
8	0xa7	-89
9	0x98	-104
10	0xb0	-80
11	0xae	-82
12	0x16	22
13	0xc2	-62
14	0x2e	46
15	0x4a	74
16	0x95	-107
17	0xec	-20
18	0xdd	-35
19	0x9d	-99
20	0x18	24
21	0x8a	-118
22	0xea	-22
23	0xef	-17
24	0x50	80
25	0xa3	-93
26	0x8d	-115
27	0xc7	-57
28	0x78	120
29	0xdc	-36
30	0x99	-103
31	0x1d	29
32	0x19	25
33	0x76	118
34	0xac	-84
35	0x51	81
36	0x0e	14
37	0xbc	-68
38	0xaf	-81
39	0xe8	-24
40	0xe4	-28
41	0x88	-120
42	0xb7	-73
43	0x56	86
44	0x93	-109
45	0x81	-127
46	0xba	-70
47	0x23	35
48	0x97	-105
49	0xad	-83
50	0x1b	27
51	0x66	102
52	0x02	2
53	0xd7	-41
54	0x1f	31
55	0x43	67
56	0x00	0
57	0x55	85
58	0x2b	43
59	0xf4	-12
60	0xfd	-3
61	0xc8	-56
62	0x04	4
63	0x3f	63
64	0xcb	-53
65	0x7f	127
66	0x51	81
67	0xec	-20
68	0xde	-34
69	0xf8	-8
70	0x7a	122
71	0x30	48
72	0xfb	-5
73	0x5f	95
74	0x02	2
75	0x56	86
76	0x34	52
77	0x34	52
78	0x26	38
79	0xb6	-74
80	0xf8	-8
81	0xca	-54
82	0x38	56
83	0x18	24
84	0x22	34
85	0x44	68
86	0x28	40
87	0xb3	-77
88	0xee	-18
89	0xdc	-36
90	0xd2	-46
91	0x5e	94
92	0xb9	-71
93	0xc6	-58
94	0x9d	-99
95	0x23	35
96	0x03	3
97	0x55	85
98	0x8a	-118
99	0xd6	-42
100	0x7c	124
101	0xce	-50
102	0x07	7
103	0x4b	75
104	0x43	67
105	0x9d	-99
106	0x1e	30
107	0xf0	-16
108	0x0a	10
109	0x5f	95
110	0xf8	-8
111	0xdb	-37
112	0x14	20
113	0xf9	-7
114	0x95	-107
115	0x06	6
116	0x05	5
117	0x06	6
118	0xf5	-11
119	0x1c	28
120	0x08	8
121	0xe1	-31
122	0xa6	-90
123	0x81	-127
124	0xaf	-81
125	0x4d	77
126	0x86	-122
127	0x3c	60
128	0x47	71
129	0x07	7
130	0xef	-17
131	0x9a	-102
132	0x64	100
133	0x5d	93
134	0x0f	15
135	0xa1	-95
136	0x96	-106
137	0x69	105
138	0xe7	-25
139	0xc2	-62
140	0x9b	-101
141	0x6f	111
142	0x7f	127
143	0x54	84
144	0x6f	111
145	0x4b	75
146	0x54	84
147	0x7e	126
148	0xce	-50
149	0x9b	-101
150	0xad	-83
151	0x4c	76
152	0xeb	-21
153	0x07	7
154	0xce	-50
155	0x05	5
156	0x52	82
157	0x61	97
158	0xf1	-15
159	0x51	81
160	0xf0	-16
161	0x41	65
162	0x7c	124
163	0xfb	-5
164	0xf4	-12
165	0xb7	-73
166	0x81	-127
167	0xc3	-61
168	0x9e	-98
169	0x96	-106
170	0xa3	-93
171	0x4d	77
172	0xd1	-47
173	0x4f	79
174	0x36	54
175	0x47	71
176	0x04	4
177	0xac	-84
178	0x55	85
179	0xcd	-51
180	0x0a	10
181	0x3f	63
182	0x52	82
183	0xc7	-57
184	0xb0	-80
185	0xa9	-87
186	0x22	34
187	0x79	121
188	0xf0	-16
189	0x21	33
190	0x9d	-99
191	0xd2	-46
192	0xcc	-52
193	0x5d	93
194	0x8f	-113
195	0x77	119
196	0x73	115
197	0x29	41
198	0xd4	-44
199	0xaa	-86
200	0xbf	-65
201	0x45	69
202	0x77	119
203	0x85	-123
204	0xe6	-26
205	0xdb	-37
206	0xa9	-87
207	0x3e	62
208	0xf5	-11
209	0x07	7
210	0x38	56
211	0xd3	-45
212	0x07	7
213	0x08	8
214	0xee	-18
215	0xb7	-73
216	0x95	-107
217	0x86	-122
218	0xf4	-12
219	0x81	-127
220	0x20	32
221	0x5e	94
222	0xa4	-92
223	0x27	39
224	0x1f	31
225	0x43	67
226	0x39	57
227	0xdb	-37
228	0x4c	76
229	0x68	104
230	0xe2	-30
231	0x4e	78
232	0x7f	127
233	0x2b	43
234	0x9c	-100
235	0x3d	61
236	0xf6	-10
237	0xac	-84
238	0x35	53
239	0x6e	110
240	0x07	7
241	0x0b	11
242	0x7f	127
243	0x9d	-99
244	0x19	25
245	0xc3	-61
246	0x50	80
247	0x4e	78
248	0xbb	-69
249	0x56	86
250	0x82	-126
251	0x86	-122
252	0x6a	106
253	0x6b	107
254	0x24	36
255	0x9a	-102

tfl.pseudo_qconst5 i1 [32, 16]
0	0x32	50
1	0x22	34
2	0x81	-127
3	0x31	49
4	0xfb	-5
5	0xc9	-55
6	0xba	-70
7	0xeb	-21
8	0x3e	62
9	0xce	-50
10	0x13	19
11	0x13	19
12	0x82	-126
13	0x81	-127
14	0x5b	91
15	0x25	37
16	0xf8	-8
17	0x66	102
18	0x32	50
19	0xf5	-11
20	0x6d	109
21	0x6c	108
22	0x2b	43
23	0xd7	-41
24	0x02	2
25	0xed	-19
26	0x81	-127
27	0x02	2
28	0x51	81
29	0xa6	-90
30	0x26	38
31	0x89	-119
32	0x5b	91
33	0x00	0
34	0xb0	-80
35	0x1f	31
36	0x08	8
37	0x8a	-118
38	0x46	70
39	0x7b	123
40	0xd7	-41
41	0x43	67
42	0xeb	-21
43	0x37	55
44	0x9d	-99
45	0x7f	127
46	0xad	-83
47	0x66	102
48	0x87	-121
49	0x79	121
50	0xfe	-2
51	0x5a	90
52	0xcf	-49
53	0xb7	-73
54	0x05	5
55	0x3a	58
56	0xd4	-44
57	0x83	-125
58	0x7f	127
59	0x10	16
60	0xc5	-59
61	0x26	38
62	0x95	-107
63	0x50	80
64	0x02	2
65	0xbf	-65
66	0x55	85
67	0x01	1
68	0x18	24
69	0xdd	-35
70	0xec	-20
71	0x65	101
72	0xd2	-46
73	0xe1	-31
74	0x6e	110
75	0x81	-127
76	0x90	-112
77	0x0c	12
78	0x53	83
79	0xd0	-48
80	0xea	-22
81	0xe6	-26
82	0xee	-18
83	0x6a	106
84	0x7f	127
85	0x16	22
86	0x91	-111
87	0x7a	122
88	0xf0	-16
89	0x7a	122
90	0xc3	-61
91	0xd5	-43
92	0xbd	-67
93	0x82	-126
94	0x15	21
95	0xef	-17
96	0xc8	-56
97	0x1d	29
98	0x9d	-99
99	0xfe	-2
100	0x54	84
101	0x7f	127
102	0xe6	-26
103	0x5c	92
104	0x8f	-113
105	0x4f	79
106	0xd5	-43
107	0x40	64
108	0xa7	-89
109	0x59	89
110	0xab	-85
111	0x65	101
112	0x76	118
113	0x2e	46
114	0x41	65
115	0x52	82
116	0x8b	-117
117	0x70	112
118	0x16	22
119	0x63	99
120	0xfc	-4
121	0x44	68
122	0xfe	-2
123	0x7f	127
124	0xe7	-25
125	0x0b	11
126	0xd8	-40
127	0x11	17
128	0x3b	59
129	0x6a	106
130	0xea	-22
131	0xd3	-45
132	0xf7	-9
133	0xf9	-7
134	0x01	1
135	0x4b	75
136	0x54	84
137	0x28	40
138	0x89	-119
139	0x81	-127
140	0x54	84
141	0xb1	-79
142	0xa6	-90
143	0x82	-126
144	0x6a	106
145	0xa8	-88
146	0xc4	-60
147	0x03	3
148	0xb0	-80
149	0x1e	30
150	0xf7	-9
151	0x9e	-98
152	0xfb	-5
153	0x88	-120
154	0x81	-127
155	0x42	66
156	0x34	52
157	0x42	66
158	0xd3	-45
159	0x44	68
160	0x7b	123
161	0x33	51
162	0xf1	-15
163	0x7f	127
164	0x96	-106
165	0x67	103
166	0x1b	27
167	0xd8	-40
168	0x72	114
169	0x7f	127
170	0x47	71
171	0xc0	-64
172	0xf7	-9
173	0x4f	79
174	0x12	18
175	0x27	39
176	0xa5	-91
177	0x00	0
178	0xd8	-40
179	0xaf	-81
180	0x86	-122
181	0xc7	-57
182	0x16	22
183	0xff	-1
184	0x64	100
185	0xa4	-92
186	0xe6	-26
187	0xb5	-75
188	0x81	-127
189	0x8c	-116
190	0xfd	-3
191	0x9e	-98
192	0x0b	11
193	0x49	73
194	0x0a	10
195	0xc1	-63
196	0x32	50
197	0x08	8
198	0x1b	27
199	0x15	21
200	0x17	23
201	0x85	-123
202	0x11	17
203	0x81	-127
204	0xf7	-9
205	0x1e	30
206	0x05	5
207	0x91	-111
208	0xb7	-73
209	0xe2	-30
210	0x7f	127
211	0x11	17
212	0x48	72
213	0x26	38
214	0x26	38
215	0x27	39
216	0xb9	-71
217	0xb2	-78
218	0x90	-112
219	0xe0	-32
220	0x38	56
221	0xc1	-63
222	0x6a	106
223	0x18	24
224	0xcf	-49
225	0x32	50
226	0x22	34
227	0xd7	-41
228	0x7f	127
229	0x6a	106
230	0x6d	109
231	0x53	83
232	0x59	89
233	0x2c	44
234	0xbb	-69
235	0xe0	-32
236	0x0c	12
237	0x23	35
238	0x73	115
239	0xe0	-32
240	0xa6	-90
241	0x05	5
242	0x8c	-116
243	0x09	9
244	0x1b	27
245	0x14	20
246	0x8d	-115
247	0x0f	15
248	0xfd	-3
249	0xa7	-89
250	0xf1	-15
251	0x7e	126
252	0x97	-105
253	0x81	-127
254	0xb7	-73
255	0x00	0

tfl.pseudo_qconst7 i1 [16, 32]
0	0xc8	-56
1	0xd3	-45
2	0xde	-34
3	0x5c	92
4	0x0b	11
5	0x2e	46
6	0x1d	29
7	0x72	114
8	0x5a	90
9	0x7a	122
10	0xaa	-86
11	0xfb	-5
12	0xef	-17
13	0x01	1
14	0x79	121
15	0x39	57
16	0x6e	110
17	0x31	49
18	0x5e	94
19	0xfe	-2
20	0x7f	127
21	0xe8	-24
22	0x9f	-97
23	0x3f	63
24	0xa9	-87
25	0xa5	-91
26	0x01	1
27	0x36	54
28	0x4f	79
29	0x0f	15
30	0xe1	-31
31	0x68	104
32	0xcb	-53
33	0x8e	-114
34	0x1f	31
35	0x5f	95
36	0xbb	-69
37	0xcc	-52
38	0xa4	-92
39	0x74	116
40	0x50	80
41	0xc1	-63
42	0xf5	-11
43	0x72	114
44	0x03	3
45	0x09	9
46	0x1d	29
47	0x61	97
48	0xf2	-14
49	0xd7	-41
50	0xb0	-80
51	0xf8	-8
52	0xfd	-3
53	0x1c	28
54	0x87	-121
55	0x8e	-114
56	0xa8	-88
57	0xab	-85
58	0x81	-127
59	0x54	84
60	0x33	51
61	0xe0	-32
62	0x40	64
63	0xf6	-10
64	0x47	71
65	0x6d	109
66	0xa3	-93
67	0xfa	-6
68	0xd1	-47
69	0x75	117
70	0x12	18
71	0x58	88
72	0x1a	26
73	0x43	67
74	0x15	21
75	0x23	35
76	0xce	-50
77	0x02	2
78	0xa0	-96
79	0x47	71
80	0xa6	-90
81	0x8d	-115
82	0x06	6
83	0xf8	-8
84	0xa7	-89
85	0xdb	-37
86	0x50	80
87	0xee	-18
88	0xdf	-33
89	0xd6	-42
90	0xaa	-86
91	0x91	-111
92	0xe9	-23
93	0x5c	92
94	0xc3	-61
95	0x7f	127
96	0x18	24
97	0x52	82
98	0x25	37
99	0x76	118
100	0xb6	-74
101	0x39	57
102	0xc7	-57
103	0x3d	61
104	0x9b	-101
105	0x1a	26
106	0xb4	-76
107	0x16	22
108	0xab	-85
109	0x46	70
110	0x3f	63
111	0x38	56
112	0x2b	43
113	0x05	5
114	0xc0	-64
115	0xf9	-7
116	0x8b	-117
117	0x9e	-98
118	0x33	51
119	0x7f	127
120	0xfa	-6
121	0x0c	12
122	0x3f	63
123	0x54	84
124	0x8a	-118
125	0x8b	-117
126	0x15	21
127	0x3a	58
128	0x7e	126
129	0x2c	44
130	0x57	87
131	0x4a	74
132	0xf5	-11
133	0x36	54
134	0xb4	-76
135	0xcc	-52
136	0xb5	-75
137	0xfa	-6
138	0xe4	-28
139	0xd6	-42
140	0x4a	74
141	0x12	18
142	0x69	105
143	0x8f	-113
144	0x46	70
145	0xf0	-16
146	0x2d	45
147	0x56	86
148	0xad	-83
149	0x74	116
150	0xe3	-29
151	0x64	100
152	0xbb	-69
153	0x17	23
154	0x7c	124
155	0x81	-127
156	0x96	-106
157	0xe7	-25
158	0x76	118
159	0x3c	60
160	0x7f	127
161	0x41	65
162	0x06	6
163	0xc2	-62
164	0x92	-110
165	0xc6	-58
166	0x9c	-100
167	0xd9	-39
168	0x3b	59
169	0xf4	-12
170	0x46	70
171	0x02	2
172	0x23	35
173	0xc1	-63
174	0x18	24
175	0xfc	-4
176	0x7b	123
177	0x6b	107
178	0x33	51
179	0x57	87
180	0xeb	-21
181	0x92	-110
182	0x53	83
183	0xee	-18
184	0xd2	-46
185	0x69	105
186	0x69	105
187	0x2a	42
188	0xd1	-47
189	0xcf	-49
190	0x52	82
191	0x9a	-102
192	0x42	66
193	0x60	96
194	0xc5	-59
195	0xf0	-16
196	0x75	117
197	0xeb	-21
198	0x8f	-113
199	0xd0	-48
200	0x09	9
201	0xb6	-74
202	0xb6	-74
203	0x42	66
204	0xcc	-52
205	0x79	121
206	0xf3	-13
207	0xb6	-74
208	0x61	97
209	0x0d	13
210	0xa2	-94
211	0x2a	42
212	0x33	51
213	0x09	9
214	0xf5	-11
215	0xe1	-31
216	0xaa	-86
217	0xe8	-24
218	0x7f	127
219	0xc8	-56
220	0xd5	-43
221	0x5f	95
222	0x76	118
223	0xc9	-55
224	0x54	84
225	0x04	4
226	0x88	-120
227	0xee	-18
228	0x64	100
229	0xb8	-72
230	0x2b	43
231	0xd1	-47
232	0x3e	62
233	0xe8	-24
234	0x14	20
235	0x60	96
236	0xef	-17
237	0xa7	-89
238	0x5a	90
239	0xae	-82
240	0x7f	127
241	0xdb	-37
242	0xb7	-73
243	0x78	120
244	0xf5	-11
245	0x34	52
246	0xc7	-57
247	0xeb	-21
248	0xa1	-95
249	0xe8	-24
250	0x55	85
251	0x9a	-102
252	0x23	35
253	0x3c	60
254	0x0b	11
255	0x6c	108

tfl.pseudo_qconst9 i1 [32, 64]
0	0x53	83
1	0xdf	-33
2	0x24	36
3	0x3d	61
4	0x58	88
5	0x4c	76
6	0x33	51
7	0x20	32
8	0x67	103
9	0x72	114
10	0x66	102
11	0x67	103
12	0x8e	-114
13	0xe0	-32
14	0x97	-105
15	0xd3	-45
16	0xdf	-33
17	0x43	67
18	0xe8	-24
19	0x3b	59
20	0x57	87
21	0x00	0
22	0xd2	-46
23	0x77	119
24	0x0b	11
25	0x1f	31
26	0x99	-103
27	0x95	-107
28	0x48	72
29	0x7f	127
30	0x69	105
31	0x22	34
32	0x69	105
33	0xab	-85
34	0x31	49
35	0xe0	-32
36	0x18	24
37	0xbc	-68
38	0xc9	-55
39	0x41	65
40	0x28	40
41	0xb5	-75
42	0x51	81
43	0x27	39
44	0xa1	-95
45	0xb6	-74
46	0xce	-50
47	0x75	117
48	0x14	20
49	0x3c	60
50	0x93	-109
51	0x67	103
52	0xd4	-44
53	0xcc	-52
54	0xfa	-6
55	0x6f	111
56	0xac	-84
57	0xf0	-16
58	0x3f	63
59	0x9e	-98
60	0xda	-38
61	0xae	-82
62	0xd3	-45
63	0x46	70
64	0x05	5
65	0xbb	-69
66	0x8c	-116
67	0x53	83
68	0x62	98
69	0x99	-103
70	0xfc	-4
71	0x12	18
72	0xda	-38
73	0x8f	-113
74	0x22	34
75	0x7f	127
76	0xf0	-16
77	0x57	87
78	0xf5	-11
79	0x30	48
80	0x9f	-97
81	0xd9	-39
82	0x40	64
83	0x6b	107
84	0x9b	-101
85	0x19	25
86	0xdc	-36
87	0x33	51
88	0x73	115
89	0x5c	92
90	0xe6	-26
91	0x2c	44
92	0x35	53
93	0xe8	-24
94	0xd1	-47
95	0x60	96
96	0x9c	-100
97	0xce	-50
98	0x0e	14
99	0x10	16
100	0xbd	-67
101	0x70	112
102	0x5d	93
103	0x70	112
104	0xc4	-60
105	0xe8	-24
106	0x51	81
107	0x47	71
108	0xfc	-4
109	0x6d	109
110	0x11	17
111	0x22	34
112	0xac	-84
113	0x37	55
114	0xac	-84
115	0x43	67
116	0x69	105
117	0x3b	59
118	0xe4	-28
119	0x7a	122
120	0xb2	-78
121	0xd1	-47
122	0x74	116
123	0xd8	-40
124	0xb9	-71
125	0xd0	-48
126	0xe8	-24
127	0x09	9
128	0x46	70
129	0x94	-108
130	0x51	81
131	0x3f	63
132	0x93	-109
133	0x8e	-114
134	0x4b	75
135	0x7d	125
136	0x61	97
137	0x5c	92
138	0x7f	127
139	0x1f	31
140	0xc9	-55
141	0x27	39
142	0xc0	-64
143	0xb7	-73
144	0x5c	92
145	0x60	96
146	0xa0	-96
147	0xc6	-58
148	0x62	98
149	0x1f	31
150	0x4e	78
151	0x9a	-102
152	0x99	-103
153	0x2e	46
154	0x4c	76
155	0xa8	-88
156	0x38	56
157	0x73	115
158	0x29	41
159	0xcb	-53
160	0xab	-85
161	0x14	20
162	0xfe	-2
163	0x3a	58
164	0xe9	-23
165	0xfc	-4
166	0xcc	-52
167	0x11	17
168	0x8c	-116
169	0xe5	-27
170	0x20	32
171	0x4c	76
172	0xa1	-95
173	0x2a	42
174	0x77	119
175	0x89	-119
176	0x6a	106
177	0xae	-82
178	0xee	-18
179	0xae	-82
180	0x5b	91
181	0xb9	-71
182	0xc4	-60
183	0xf9	-7
184	0xac	-84
185	0x7b	123
186	0xe2	-30
187	0x53	83
188	0x9d	-99
189	0xd7	-41
190	0x97	-105
191	0xbc	-68
192	0xa5	-91
193	0xcf	-49
194	0x2b	43
195	0xb1	-79
196	0x1d	29
197	0xbc	-68
198	0x87	-121
199	0xa7	-89
200	0x6a	106
201	0xd0	-48
202	0x79	121
203	0x13	19
204	0x0c	12
205	0xcd	-51
206	0x88	-120
207	0xd7	-41
208	0x11	17
209	0x40	64
210	0x5c	92
211	0xb2	-78
212	0xda	-38
213	0xb8	-72
214	0x77	119
215	0x3f	63
216	0xfc	-4
217	0x95	-107
218	0xee	-18
219	0x0b	11
220	0x39	57
221	0xd0	-48
222	0x93	-109
223	0xc6	-58
224	0xbc	-68
225	0xeb	-21
226	0x1f	31
227	0x86	-122
228	0xf3	-13
229	0x93	-109
230	0x66	102
231	0xa8	-88
232	0xea	-22
233	0xcf	-49
234	0x68	104
235	0xae	-82
236	0xde	-34
237	0x32	50
238	0x8e	-114
239	0x4d	77
240	0xf8	-8
241	0x71	113
242	0xc3	-61
243	0x98	-104
244	0x7f	127
245	0xd5	-43
246	0xd7	-41
247	0x9b	-101
248	0x8e	-114
249	0x3e	62
250	0x84	-124
251	0x22	34
252	0xd2	-46
253	0x28	40
254	0x11	17
255	0x7c	124

tfl.pseudo_qconst11 i1 [64, 3]
0	0x5c	92
1	0x7f	127
2	0x12	18
3	0x97	-105
4	0xba	-70
5	0x81	-127
6	0x81	-127
7	0xd4	-44
8	0xbe	-66
9	0x12	18
10	0x7f	127
11	0xf7	-9
12	0x0c	12
13	0x87	-121
14	0x7f	127
15	0xfa	-6
16	0xa2	-94
17	0x81	-127
18	0x7f	127
19	0x9c	-100
20	0x33	51
21	0x6d	109
22	0x2f	47
23	0x7f	127
24	0x23	35
25	0x81	-127
26	0xd3	-45
27	0x81	-127
28	0x61	97
29	0xeb	-21
30	0xa0	-96
31	0x7f	127
32	0x15	21
33	0x81	-127
34	0x85	-123
35	0x7e	126
36	0x81	-127
37	0xe9	-23
38	0x97	-105
39	0x8d	-115
40	0x56	86
41	0x7f	127
42	0xfe	-2
43	0x83	-125
44	0x81	-127
45	0x81	-127
46	0x13	19
47	0x12	18
48	0x7f	127
49	0x27	39
50	0x2f	47
51	0x67	103
52	0x08	8
53	0x7f	127
54	0x63	99
55	0x7f	127
56	0x75	117
57	0x7f	127
58	0xae	-82
59	0xb2	-78
60	0x81	-127
61	0x14	20
62	0xba	-70
63	0x81	-127
64	0xb1	-79
65	0x51	81
66	0x81	-127
67	0xb6	-74
68	0xc8	-56
69	0x86	-122
70	0xf7	-9
71	0x7f	127
72	0x24	36
73	0x81	-127
74	0x00	0
75	0x1f	31
76	0xd9	-39
77	0x81	-127
78	0x08	8
79	0xcf	-49
80	0x81	-127
81	0x7f	127
82	0x5d	93
83	0xd0	-48
84	0x7f	127
85	0x99	-103
86	0x37	55
87	0x0b	11
88	0x04	4
89	0x7f	127
90	0x81	-127
91	0x12	18
92	0xe3	-29
93	0xe4	-28
94	0x3d	61
95	0x81	-127
96	0x2f	47
97	0x7f	127
98	0x4b	75
99	0x19	25
100	0x7f	127
101	0x84	-124
102	0xcf	-49
103	0x81	-127
104	0x39	57
105	0x7f	127
106	0x1f	31
107	0x52	82
108	0x85	-123
109	0x13	19
110	0x7f	127
111	0x7f	127
112	0x60	96
113	0x87	-121
114	0x5c	92
115	0x88	-120
116	0x81	-127
117	0x7f	127
118	0x32	50
119	0x89	-119
120	0x81	-127
121	0x6d	109
122	0x53	83
123	0xf9	-7
124	0x7f	127
125	0xf7	-9
126	0xdf	-33
127	0xc7	-57
128	0x7f	127
129	0x01	1
130	0xcf	-49
131	0x7f	127
132	0xd5	-43
133	0x81	-127
134	0x6d	109
135	0xda	-38
136	0x25	37
137	0x81	-127
138	0x8f	-113
139	0x43	67
140	0x81	-127
141	0x7f	127
142	0x1f	31
143	0x1c	28
144	0xb9	-71
145	0x81	-127
146	0xdd	-35
147	0x81	-127
148	0x3d	61
149	0x76	118
150	0x81	-127
151	0xc2	-62
152	0x9b	-101
153	0x82	-126
154	0x09	9
155	0x7f	127
156	0x9d	-99
157	0x07	7
158	0x81	-127
159	0x7f	127
160	0x5a	90
161	0x50	80
162	0xa0	-96
163	0x81	-127
164	0x89	-119
165	0xf6	-10
166	0xd7	-41
167	0x7f	127
168	0x01	1
169	0x7f	127
170	0xa7	-89
171	0x59	89
172	0x7f	127
173	0x33	51
174	0x5a	90
175	0x81	-127
176	0x53	83
177	0x4c	76
178	0x8d	-115
179	0x81	-127
180	0x81	-127
181	0x3e	62
182	0x2b	43
183	0x81	-127
184	0xce	-50
185	0xcf	-49
186	0x05	5
187	0x7f	127
188	0x55	85
189	0xab	-85
190	0x5c	92
191	0x7f	127
